…
[2022-03-03 18:03:14] )
[2022-03-03 18:03:14] Using Sampler {'shuffle': True}
[2022-03-03 18:03:25] AdamW (
[2022-03-03 18:03:25] Parameter Group 0
[2022-03-03 18:03:25]     amsgrad: False
[2022-03-03 18:03:25]     betas: (0.9, 0.999)
[2022-03-03 18:03:25]     eps: 1e-08
[2022-03-03 18:03:25]     lr: 0.0001
[2022-03-03 18:03:25]     weight_decay: 0.01
[2022-03-03 18:03:25] )
[2022-03-03 18:03:25] RaDur_fusion(
[2022-03-03 18:03:25]   (encoder): Cnn14(
[2022-03-03 18:03:25]     (spectrogram_extractor): Spectrogram(
[2022-03-03 18:03:25]       (stft): STFT(
[2022-03-03 18:03:25]         (conv_real): Conv1d(1, 513, kernel_size=(1024,), stride=(320,), bias=False)
[2022-03-03 18:03:25]         (conv_imag): Conv1d(1, 513, kernel_size=(1024,), stride=(320,), bias=False)
[2022-03-03 18:03:25]       )
[2022-03-03 18:03:25]     )
[2022-03-03 18:03:25]     (logmel_extractor): LogmelFilterBank()
[2022-03-03 18:03:25]     (spec_augmenter): SpecAugmentation(
[2022-03-03 18:03:25]       (time_dropper): DropStripes()
[2022-03-03 18:03:25]       (freq_dropper): DropStripes()
[2022-03-03 18:03:25]     )
[2022-03-03 18:03:25]     (bn0): BatchNorm2d(64, eps=1e-05, momentum=0.1, affine=True, track_running_stats=True)
[2022-03-03 18:03:25]     (conv_block1): ConvBlock(
[2022-03-03 18:03:25]       (conv1): Conv2d(1, 64, kernel_size=(3, 3), stride=(1, 1), padding=(1, 1), bias=False)
[2022-03-03 18:03:25]       (conv2): Conv2d(64, 64, kernel_size=(3, 3), stride=(1, 1), padding=(1, 1), bias=False)
[2022-03-03 18:03:25]       (bn1): BatchNorm2d(64, eps=1e-05, momentum=0.1, affine=True, track_running_stats=True)
[2022-03-03 18:03:25]       (bn2): BatchNorm2d(64, eps=1e-05, momentum=0.1, affine=True, track_running_stats=True)
[2022-03-03 18:03:25]     )
[2022-03-03 18:03:25]     (conv_block2): ConvBlock(
[2022-03-03 18:03:25]       (conv1): Conv2d(64, 128, kernel_size=(3, 3), stride=(1, 1), padding=(1, 1), bias=False)
[2022-03-03 18:03:25]       (conv2): Conv2d(128, 128, kernel_size=(3, 3), stride=(1, 1), padding=(1, 1), bias=False)
[2022-03-03 18:03:25]       (bn1): BatchNorm2d(128, eps=1e-05, momentum=0.1, affine=True, track_running_stats=True)
[2022-03-03 18:03:25]       (bn2): BatchNorm2d(128, eps=1e-05, momentum=0.1, affine=True, track_running_stats=True)
[2022-03-03 18:03:25]     )
[2022-03-03 18:03:25]     (conv_block3): ConvBlock(
[2022-03-03 18:03:25]       (conv1): Conv2d(128, 256, kernel_size=(3, 3), stride=(1, 1), padding=(1, 1), bias=False)
[2022-03-03 18:03:25]       (conv2): Conv2d(256, 256, kernel_size=(3, 3), stride=(1, 1), padding=(1, 1), bias=False)
[2022-03-03 18:03:25]       (bn1): BatchNorm2d(256, eps=1e-05, momentum=0.1, affine=True, track_running_stats=True)
[2022-03-03 18:03:25]       (bn2): BatchNorm2d(256, eps=1e-05, momentum=0.1, affine=True, track_running_stats=True)
[2022-03-03 18:03:25]     )
[2022-03-03 18:03:25]     (conv_block4): ConvBlock(
[2022-03-03 18:03:25]       (conv1): Conv2d(256, 512, kernel_size=(3, 3), stride=(1, 1), padding=(1, 1), bias=False)
[2022-03-03 18:03:25]       (conv2): Conv2d(512, 512, kernel_size=(3, 3), stride=(1, 1), padding=(1, 1), bias=False)
[2022-03-03 18:03:25]       (bn1): BatchNorm2d(512, eps=1e-05, momentum=0.1, affine=True, track_running_stats=True)
[2022-03-03 18:03:25]       (bn2): BatchNorm2d(512, eps=1e-05, momentum=0.1, affine=True, track_running_stats=True)
[2022-03-03 18:03:25]     )
[2022-03-03 18:03:25]     (conv_block5): ConvBlock(
[2022-03-03 18:03:25]       (conv1): Conv2d(512, 1024, kernel_size=(3, 3), stride=(1, 1), padding=(1, 1), bias=False)
[2022-03-03 18:03:25]       (conv2): Conv2d(1024, 1024, kernel_size=(3, 3), stride=(1, 1), padding=(1, 1), bias=False)
[2022-03-03 18:03:25]       (bn1): BatchNorm2d(1024, eps=1e-05, momentum=0.1, affine=True, track_running_stats=True)
[2022-03-03 18:03:25]       (bn2): BatchNorm2d(1024, eps=1e-05, momentum=0.1, affine=True, track_running_stats=True)
[2022-03-03 18:03:25]     )
[2022-03-03 18:03:25]     (conv_block6): ConvBlock(
[2022-03-03 18:03:25]       (conv1): Conv2d(1024, 2048, kernel_size=(3, 3), stride=(1, 1), padding=(1, 1), bias=False)
[2022-03-03 18:03:25]       (conv2): Conv2d(2048, 2048, kernel_size=(3, 3), stride=(1, 1), padding=(1, 1), bias=False)
[2022-03-03 18:03:25]       (bn1): BatchNorm2d(2048, eps=1e-05, momentum=0.1, affine=True, track_running_stats=True)
[2022-03-03 18:03:25]       (bn2): BatchNorm2d(2048, eps=1e-05, momentum=0.1, affine=True, track_running_stats=True)
[2022-03-03 18:03:25]     )
[2022-03-03 18:03:25]     (fc1): Linear(in_features=2048, out_features=128, bias=True)
[2022-03-03 18:03:25]     (fc_audioset): Linear(in_features=128, out_features=527, bias=True)
[2022-03-03 18:03:25]   )
[2022-03-03 18:03:25]   (detection): CDur_CNN_mul_scale_fusion(
[2022-03-03 18:03:25]     (features): Cnn10_mul_scale(
[2022-03-03 18:03:25]       (conv_block1_1): ConvBlock_GLU(
[2022-03-03 18:03:25]         (conv1): Conv2d(1, 64, kernel_size=(1, 1), stride=(1, 1), padding=(1, 1), bias=False)
[2022-03-03 18:03:25]         (bn1): BatchNorm2d(64, eps=1e-05, momentum=0.1, affine=True, track_running_stats=True)
[2022-03-03 18:03:25]         (sigmoid): Sigmoid()
[2022-03-03 18:03:25]       )
[2022-03-03 18:03:25]       (conv_block1_2): ConvBlock_GLU(
[2022-03-03 18:03:25]         (conv1): Conv2d(1, 64, kernel_size=(3, 3), stride=(1, 1), padding=(1, 1), bias=False)
[2022-03-03 18:03:25]         (bn1): BatchNorm2d(64, eps=1e-05, momentum=0.1, affine=True, track_running_stats=True)
[2022-03-03 18:03:25]         (sigmoid): Sigmoid()
[2022-03-03 18:03:25]       )
[2022-03-03 18:03:25]       (conv_block1_3): ConvBlock_GLU(
[2022-03-03 18:03:25]         (conv1): Conv2d(1, 64, kernel_size=(5, 5), stride=(1, 1), padding=(1, 1), bias=False)
[2022-03-03 18:03:25]         (bn1): BatchNorm2d(64, eps=1e-05, momentum=0.1, affine=True, track_running_stats=True)
[2022-03-03 18:03:25]         (sigmoid): Sigmoid()
[2022-03-03 18:03:25]       )
[2022-03-03 18:03:25]       (conv_block2): ConvBlock(
[2022-03-03 18:03:25]         (conv1): Conv2d(96, 128, kernel_size=(3, 3), stride=(1, 1), padding=(1, 1), bias=False)
[2022-03-03 18:03:25]         (conv2): Conv2d(128, 128, kernel_size=(3, 3), stride=(1, 1), padding=(1, 1), bias=False)
[2022-03-03 18:03:25]         (bn1): BatchNorm2d(128, eps=1e-05, momentum=0.1, affine=True, track_running_stats=True)
[2022-03-03 18:03:25]         (bn2): BatchNorm2d(128, eps=1e-05, momentum=0.1, affine=True, track_running_stats=True)
[2022-03-03 18:03:25]       )
[2022-03-03 18:03:25]       (conv_block3): ConvBlock(
[2022-03-03 18:03:25]         (conv1): Conv2d(128, 256, kernel_size=(3, 3), stride=(1, 1), padding=(1, 1), bias=False)
[2022-03-03 18:03:25]         (conv2): Conv2d(256, 256, kernel_size=(3, 3), stride=(1, 1), padding=(1, 1), bias=False)
[2022-03-03 18:03:25]         (bn1): BatchNorm2d(256, eps=1e-05, momentum=0.1, affine=True, track_running_stats=True)
[2022-03-03 18:03:25]         (bn2): BatchNorm2d(256, eps=1e-05, momentum=0.1, affine=True, track_running_stats=True)
[2022-03-03 18:03:25]       )
[2022-03-03 18:03:25]       (conv_block4): ConvBlock(
[2022-03-03 18:03:25]         (conv1): Conv2d(256, 512, kernel_size=(3, 3), stride=(1, 1), padding=(1, 1), bias=False)
[2022-03-03 18:03:25]         (conv2): Conv2d(512, 512, kernel_size=(3, 3), stride=(1, 1), padding=(1, 1), bias=False)
[2022-03-03 18:03:25]         (bn1): BatchNorm2d(512, eps=1e-05, momentum=0.1, affine=True, track_running_stats=True)
[2022-03-03 18:03:25]         (bn2): BatchNorm2d(512, eps=1e-05, momentum=0.1, affine=True, track_running_stats=True)
[2022-03-03 18:03:25]       )
[2022-03-03 18:03:25]       (padding): ReplicationPad2d((0, 1, 0, 1))
[2022-03-03 18:03:25]     )
[2022-03-03 18:03:25]     (gru): GRU(512, 512, batch_first=True, bidirectional=True)
[2022-03-03 18:03:25]     (fc): Linear(in_features=1024, out_features=256, bias=True)
[2022-03-03 18:03:25]     (fusion): Fusion(
[2022-03-03 18:03:25]       (fuse_layer1): conv1d(
[2022-03-03 18:03:25]         (conv): Conv1d(128, 1024, kernel_size=(1,), stride=(1,))
[2022-03-03 18:03:25]         (act): ReLU()
[2022-03-03 18:03:25]       )
[2022-03-03 18:03:25]       (fuse_layer2): conv1d(
[2022-03-03 18:03:25]         (conv): Conv1d(512, 1024, kernel_size=(1,), stride=(1,))
[2022-03-03 18:03:25]         (act): ReLU()
[2022-03-03 18:03:25]       )
[2022-03-03 18:03:25]       (avg_pool): AvgPool1d(kernel_size=(2,), stride=(2,), padding=(0,))
[2022-03-03 18:03:25]     )
[2022-03-03 18:03:25]     (outputlayer): Linear(in_features=256, out_features=2, bias=True)
[2022-03-03 18:03:25]   )
[2022-03-03 18:03:25]   (softmax): Softmax(dim=2)
[2022-03-03 18:03:25]   (q): Linear(in_features=128, out_features=128, bias=True)
[2022-03-03 18:03:25]   (k): Linear(in_features=128, out_features=128, bias=True)
[2022-03-03 18:03:25]   (q_ee): Linear(in_features=128, out_features=128, bias=True)
[2022-03-03 18:03:25]   (k_ee): Linear(in_features=128, out_features=128, bias=True)
[2022-03-03 18:03:25]   (bn): BatchNorm1d(128, eps=1e-05, momentum=0.1, affine=True, track_running_stats=True)
[2022-03-03 18:03:25]   (EE_fusion): Fusion(
[2022-03-03 18:03:25]     (fuse_layer1): conv1d(
[2022-03-03 18:03:25]       (conv): Conv1d(128, 512, kernel_size=(1,), stride=(1,))
[2022-03-03 18:03:25]       (act): ReLU()
[2022-03-03 18:03:25]     )
[2022-03-03 18:03:25]     (fuse_layer2): conv1d(
[2022-03-03 18:03:25]       (conv): Conv1d(128, 512, kernel_size=(1,), stride=(1,))
[2022-03-03 18:03:25]       (act): ReLU()
[2022-03-03 18:03:25]     )
[2022-03-03 18:03:25]     (avg_pool): AvgPool1d(kernel_size=(4,), stride=(4,), padding=(0,))
[2022-03-03 18:03:25]   )
[2022-03-03 18:03:25] )
[2022-03-03 18:03:25] Using 2 GPUs!
[2022-03-03 21:31:42] Scheduling epoch 1
[2022-03-03 21:31:44] Validation Results - Epoch : 1     Loss 0.08  Precision 0.71  Recall 0.77  Accuracy 0.89  F1 0.73 
…
